__________________________________________________________________________________________________
Layer (type)                    Output Shape         Param #     Connected to
==================================================================================================
input_1 (InputLayer)            [(None, 512, 512, 3) 0
__________________________________________________________________________________________________
conv2d (Conv2D)                 (None, 512, 512, 32) 864         input_1[0][0]
__________________________________________________________________________________________________
batch_normalization (BatchNorma (None, 512, 512, 32) 128         conv2d[0][0]
__________________________________________________________________________________________________
lambda (Lambda)                 (None, 512, 512, 32) 0           batch_normalization[0][0]
__________________________________________________________________________________________________
zero_padding2d (ZeroPadding2D)  (None, 513, 513, 32) 0           lambda[0][0]
__________________________________________________________________________________________________
conv2d_1 (Conv2D)               (None, 256, 256, 64) 18432       zero_padding2d[0][0]
__________________________________________________________________________________________________
batch_normalization_1 (BatchNor (None, 256, 256, 64) 256         conv2d_1[0][0]
__________________________________________________________________________________________________
lambda_1 (Lambda)               (None, 256, 256, 64) 0           batch_normalization_1[0][0]
__________________________________________________________________________________________________
conv2d_3 (Conv2D)               (None, 256, 256, 64) 4096        lambda_1[0][0]
__________________________________________________________________________________________________
batch_normalization_3 (BatchNor (None, 256, 256, 64) 256         conv2d_3[0][0]
__________________________________________________________________________________________________
lambda_3 (Lambda)               (None, 256, 256, 64) 0           batch_normalization_3[0][0]
__________________________________________________________________________________________________
conv2d_4 (Conv2D)               (None, 256, 256, 32) 2048        lambda_3[0][0]
__________________________________________________________________________________________________
batch_normalization_4 (BatchNor (None, 256, 256, 32) 128         conv2d_4[0][0]
__________________________________________________________________________________________________
lambda_4 (Lambda)               (None, 256, 256, 32) 0           batch_normalization_4[0][0]
__________________________________________________________________________________________________
conv2d_5 (Conv2D)               (None, 256, 256, 64) 18432       lambda_4[0][0]
__________________________________________________________________________________________________
batch_normalization_5 (BatchNor (None, 256, 256, 64) 256         conv2d_5[0][0]
__________________________________________________________________________________________________
lambda_5 (Lambda)               (None, 256, 256, 64) 0           batch_normalization_5[0][0]
__________________________________________________________________________________________________
tf_op_layer_add (TensorFlowOpLa [(None, 256, 256, 64 0           lambda_3[0][0]
                                                                 lambda_5[0][0]
__________________________________________________________________________________________________
conv2d_6 (Conv2D)               (None, 256, 256, 64) 4096        tf_op_layer_add[0][0]
__________________________________________________________________________________________________
conv2d_2 (Conv2D)               (None, 256, 256, 64) 4096        lambda_1[0][0]
__________________________________________________________________________________________________
batch_normalization_6 (BatchNor (None, 256, 256, 64) 256         conv2d_6[0][0]
__________________________________________________________________________________________________
batch_normalization_2 (BatchNor (None, 256, 256, 64) 256         conv2d_2[0][0]
__________________________________________________________________________________________________
lambda_6 (Lambda)               (None, 256, 256, 64) 0           batch_normalization_6[0][0]
__________________________________________________________________________________________________
lambda_2 (Lambda)               (None, 256, 256, 64) 0           batch_normalization_2[0][0]
__________________________________________________________________________________________________
tf_op_layer_concat (TensorFlowO [(None, 256, 256, 12 0           lambda_6[0][0]
                                                                 lambda_2[0][0]
__________________________________________________________________________________________________
conv2d_7 (Conv2D)               (None, 256, 256, 64) 8192        tf_op_layer_concat[0][0]
__________________________________________________________________________________________________
batch_normalization_7 (BatchNor (None, 256, 256, 64) 256         conv2d_7[0][0]
__________________________________________________________________________________________________
lambda_7 (Lambda)               (None, 256, 256, 64) 0           batch_normalization_7[0][0]
__________________________________________________________________________________________________
zero_padding2d_1 (ZeroPadding2D (None, 257, 257, 64) 0           lambda_7[0][0]
__________________________________________________________________________________________________
conv2d_8 (Conv2D)               (None, 128, 128, 128 73728       zero_padding2d_1[0][0]
__________________________________________________________________________________________________
batch_normalization_8 (BatchNor (None, 128, 128, 128 512         conv2d_8[0][0]
__________________________________________________________________________________________________
lambda_8 (Lambda)               (None, 128, 128, 128 0           batch_normalization_8[0][0]
__________________________________________________________________________________________________
conv2d_10 (Conv2D)              (None, 128, 128, 64) 8192        lambda_8[0][0]
__________________________________________________________________________________________________
batch_normalization_10 (BatchNo (None, 128, 128, 64) 256         conv2d_10[0][0]
__________________________________________________________________________________________________
lambda_10 (Lambda)              (None, 128, 128, 64) 0           batch_normalization_10[0][0]
__________________________________________________________________________________________________
conv2d_11 (Conv2D)              (None, 128, 128, 64) 4096        lambda_10[0][0]
__________________________________________________________________________________________________
batch_normalization_11 (BatchNo (None, 128, 128, 64) 256         conv2d_11[0][0]
__________________________________________________________________________________________________
lambda_11 (Lambda)              (None, 128, 128, 64) 0           batch_normalization_11[0][0]
__________________________________________________________________________________________________
conv2d_12 (Conv2D)              (None, 128, 128, 64) 36864       lambda_11[0][0]
__________________________________________________________________________________________________
batch_normalization_12 (BatchNo (None, 128, 128, 64) 256         conv2d_12[0][0]
__________________________________________________________________________________________________
lambda_12 (Lambda)              (None, 128, 128, 64) 0           batch_normalization_12[0][0]
__________________________________________________________________________________________________
tf_op_layer_add_1 (TensorFlowOp [(None, 128, 128, 64 0           lambda_10[0][0]
                                                                 lambda_12[0][0]
__________________________________________________________________________________________________
conv2d_13 (Conv2D)              (None, 128, 128, 64) 4096        tf_op_layer_add_1[0][0]
__________________________________________________________________________________________________
batch_normalization_13 (BatchNo (None, 128, 128, 64) 256         conv2d_13[0][0]
__________________________________________________________________________________________________
lambda_13 (Lambda)              (None, 128, 128, 64) 0           batch_normalization_13[0][0]
__________________________________________________________________________________________________
conv2d_14 (Conv2D)              (None, 128, 128, 64) 36864       lambda_13[0][0]
__________________________________________________________________________________________________
batch_normalization_14 (BatchNo (None, 128, 128, 64) 256         conv2d_14[0][0]
__________________________________________________________________________________________________
lambda_14 (Lambda)              (None, 128, 128, 64) 0           batch_normalization_14[0][0]
__________________________________________________________________________________________________
tf_op_layer_add_2 (TensorFlowOp [(None, 128, 128, 64 0           tf_op_layer_add_1[0][0]
                                                                 lambda_14[0][0]
__________________________________________________________________________________________________
conv2d_15 (Conv2D)              (None, 128, 128, 64) 4096        tf_op_layer_add_2[0][0]
__________________________________________________________________________________________________
conv2d_9 (Conv2D)               (None, 128, 128, 64) 8192        lambda_8[0][0]
__________________________________________________________________________________________________
batch_normalization_15 (BatchNo (None, 128, 128, 64) 256         conv2d_15[0][0]
__________________________________________________________________________________________________
batch_normalization_9 (BatchNor (None, 128, 128, 64) 256         conv2d_9[0][0]
__________________________________________________________________________________________________
lambda_15 (Lambda)              (None, 128, 128, 64) 0           batch_normalization_15[0][0]
__________________________________________________________________________________________________
lambda_9 (Lambda)               (None, 128, 128, 64) 0           batch_normalization_9[0][0]
__________________________________________________________________________________________________
tf_op_layer_concat_1 (TensorFlo [(None, 128, 128, 12 0           lambda_15[0][0]
                                                                 lambda_9[0][0]
__________________________________________________________________________________________________
conv2d_16 (Conv2D)              (None, 128, 128, 128 16384       tf_op_layer_concat_1[0][0]
__________________________________________________________________________________________________
batch_normalization_16 (BatchNo (None, 128, 128, 128 512         conv2d_16[0][0]
__________________________________________________________________________________________________
lambda_16 (Lambda)              (None, 128, 128, 128 0           batch_normalization_16[0][0]
__________________________________________________________________________________________________
zero_padding2d_2 (ZeroPadding2D (None, 129, 129, 128 0           lambda_16[0][0]
__________________________________________________________________________________________________
conv2d_17 (Conv2D)              (None, 64, 64, 256)  294912      zero_padding2d_2[0][0]
__________________________________________________________________________________________________
batch_normalization_17 (BatchNo (None, 64, 64, 256)  1024        conv2d_17[0][0]
__________________________________________________________________________________________________
lambda_17 (Lambda)              (None, 64, 64, 256)  0           batch_normalization_17[0][0]
__________________________________________________________________________________________________
conv2d_19 (Conv2D)              (None, 64, 64, 128)  32768       lambda_17[0][0]
__________________________________________________________________________________________________
batch_normalization_19 (BatchNo (None, 64, 64, 128)  512         conv2d_19[0][0]
__________________________________________________________________________________________________
lambda_19 (Lambda)              (None, 64, 64, 128)  0           batch_normalization_19[0][0]
__________________________________________________________________________________________________
conv2d_20 (Conv2D)              (None, 64, 64, 128)  16384       lambda_19[0][0]
__________________________________________________________________________________________________
batch_normalization_20 (BatchNo (None, 64, 64, 128)  512         conv2d_20[0][0]
__________________________________________________________________________________________________
lambda_20 (Lambda)              (None, 64, 64, 128)  0           batch_normalization_20[0][0]
__________________________________________________________________________________________________
conv2d_21 (Conv2D)              (None, 64, 64, 128)  147456      lambda_20[0][0]
__________________________________________________________________________________________________
batch_normalization_21 (BatchNo (None, 64, 64, 128)  512         conv2d_21[0][0]
__________________________________________________________________________________________________
lambda_21 (Lambda)              (None, 64, 64, 128)  0           batch_normalization_21[0][0]
__________________________________________________________________________________________________
tf_op_layer_add_3 (TensorFlowOp [(None, 64, 64, 128) 0           lambda_19[0][0]
                                                                 lambda_21[0][0]
__________________________________________________________________________________________________
conv2d_22 (Conv2D)              (None, 64, 64, 128)  16384       tf_op_layer_add_3[0][0]
__________________________________________________________________________________________________
batch_normalization_22 (BatchNo (None, 64, 64, 128)  512         conv2d_22[0][0]
__________________________________________________________________________________________________
lambda_22 (Lambda)              (None, 64, 64, 128)  0           batch_normalization_22[0][0]
__________________________________________________________________________________________________
conv2d_23 (Conv2D)              (None, 64, 64, 128)  147456      lambda_22[0][0]
__________________________________________________________________________________________________
batch_normalization_23 (BatchNo (None, 64, 64, 128)  512         conv2d_23[0][0]
__________________________________________________________________________________________________
lambda_23 (Lambda)              (None, 64, 64, 128)  0           batch_normalization_23[0][0]
__________________________________________________________________________________________________
tf_op_layer_add_4 (TensorFlowOp [(None, 64, 64, 128) 0           tf_op_layer_add_3[0][0]
                                                                 lambda_23[0][0]
__________________________________________________________________________________________________
conv2d_24 (Conv2D)              (None, 64, 64, 128)  16384       tf_op_layer_add_4[0][0]
__________________________________________________________________________________________________
batch_normalization_24 (BatchNo (None, 64, 64, 128)  512         conv2d_24[0][0]
__________________________________________________________________________________________________
lambda_24 (Lambda)              (None, 64, 64, 128)  0           batch_normalization_24[0][0]
__________________________________________________________________________________________________
conv2d_25 (Conv2D)              (None, 64, 64, 128)  147456      lambda_24[0][0]
__________________________________________________________________________________________________
batch_normalization_25 (BatchNo (None, 64, 64, 128)  512         conv2d_25[0][0]
__________________________________________________________________________________________________
lambda_25 (Lambda)              (None, 64, 64, 128)  0           batch_normalization_25[0][0]
__________________________________________________________________________________________________
tf_op_layer_add_5 (TensorFlowOp [(None, 64, 64, 128) 0           tf_op_layer_add_4[0][0]
                                                                 lambda_25[0][0]
__________________________________________________________________________________________________
conv2d_26 (Conv2D)              (None, 64, 64, 128)  16384       tf_op_layer_add_5[0][0]
__________________________________________________________________________________________________
batch_normalization_26 (BatchNo (None, 64, 64, 128)  512         conv2d_26[0][0]
__________________________________________________________________________________________________
lambda_26 (Lambda)              (None, 64, 64, 128)  0           batch_normalization_26[0][0]
__________________________________________________________________________________________________
conv2d_27 (Conv2D)              (None, 64, 64, 128)  147456      lambda_26[0][0]
__________________________________________________________________________________________________
batch_normalization_27 (BatchNo (None, 64, 64, 128)  512         conv2d_27[0][0]
__________________________________________________________________________________________________
lambda_27 (Lambda)              (None, 64, 64, 128)  0           batch_normalization_27[0][0]
__________________________________________________________________________________________________
tf_op_layer_add_6 (TensorFlowOp [(None, 64, 64, 128) 0           tf_op_layer_add_5[0][0]
                                                                 lambda_27[0][0]
__________________________________________________________________________________________________
conv2d_28 (Conv2D)              (None, 64, 64, 128)  16384       tf_op_layer_add_6[0][0]
__________________________________________________________________________________________________
batch_normalization_28 (BatchNo (None, 64, 64, 128)  512         conv2d_28[0][0]
__________________________________________________________________________________________________
lambda_28 (Lambda)              (None, 64, 64, 128)  0           batch_normalization_28[0][0]
__________________________________________________________________________________________________
conv2d_29 (Conv2D)              (None, 64, 64, 128)  147456      lambda_28[0][0]
__________________________________________________________________________________________________
batch_normalization_29 (BatchNo (None, 64, 64, 128)  512         conv2d_29[0][0]
__________________________________________________________________________________________________
lambda_29 (Lambda)              (None, 64, 64, 128)  0           batch_normalization_29[0][0]
__________________________________________________________________________________________________
tf_op_layer_add_7 (TensorFlowOp [(None, 64, 64, 128) 0           tf_op_layer_add_6[0][0]
                                                                 lambda_29[0][0]
__________________________________________________________________________________________________
conv2d_30 (Conv2D)              (None, 64, 64, 128)  16384       tf_op_layer_add_7[0][0]
__________________________________________________________________________________________________
batch_normalization_30 (BatchNo (None, 64, 64, 128)  512         conv2d_30[0][0]
__________________________________________________________________________________________________
lambda_30 (Lambda)              (None, 64, 64, 128)  0           batch_normalization_30[0][0]
__________________________________________________________________________________________________
conv2d_31 (Conv2D)              (None, 64, 64, 128)  147456      lambda_30[0][0]
__________________________________________________________________________________________________
batch_normalization_31 (BatchNo (None, 64, 64, 128)  512         conv2d_31[0][0]
__________________________________________________________________________________________________
lambda_31 (Lambda)              (None, 64, 64, 128)  0           batch_normalization_31[0][0]
__________________________________________________________________________________________________
tf_op_layer_add_8 (TensorFlowOp [(None, 64, 64, 128) 0           tf_op_layer_add_7[0][0]
                                                                 lambda_31[0][0]
__________________________________________________________________________________________________
conv2d_32 (Conv2D)              (None, 64, 64, 128)  16384       tf_op_layer_add_8[0][0]
__________________________________________________________________________________________________
batch_normalization_32 (BatchNo (None, 64, 64, 128)  512         conv2d_32[0][0]
__________________________________________________________________________________________________
lambda_32 (Lambda)              (None, 64, 64, 128)  0           batch_normalization_32[0][0]
__________________________________________________________________________________________________
conv2d_33 (Conv2D)              (None, 64, 64, 128)  147456      lambda_32[0][0]
__________________________________________________________________________________________________
batch_normalization_33 (BatchNo (None, 64, 64, 128)  512         conv2d_33[0][0]
__________________________________________________________________________________________________
lambda_33 (Lambda)              (None, 64, 64, 128)  0           batch_normalization_33[0][0]
__________________________________________________________________________________________________
tf_op_layer_add_9 (TensorFlowOp [(None, 64, 64, 128) 0           tf_op_layer_add_8[0][0]
                                                                 lambda_33[0][0]
__________________________________________________________________________________________________
conv2d_34 (Conv2D)              (None, 64, 64, 128)  16384       tf_op_layer_add_9[0][0]
__________________________________________________________________________________________________
batch_normalization_34 (BatchNo (None, 64, 64, 128)  512         conv2d_34[0][0]
__________________________________________________________________________________________________
lambda_34 (Lambda)              (None, 64, 64, 128)  0           batch_normalization_34[0][0]
__________________________________________________________________________________________________
conv2d_35 (Conv2D)              (None, 64, 64, 128)  147456      lambda_34[0][0]
__________________________________________________________________________________________________
batch_normalization_35 (BatchNo (None, 64, 64, 128)  512         conv2d_35[0][0]
__________________________________________________________________________________________________
lambda_35 (Lambda)              (None, 64, 64, 128)  0           batch_normalization_35[0][0]
__________________________________________________________________________________________________
tf_op_layer_add_10 (TensorFlowO [(None, 64, 64, 128) 0           tf_op_layer_add_9[0][0]
                                                                 lambda_35[0][0]
__________________________________________________________________________________________________
conv2d_36 (Conv2D)              (None, 64, 64, 128)  16384       tf_op_layer_add_10[0][0]
__________________________________________________________________________________________________
conv2d_18 (Conv2D)              (None, 64, 64, 128)  32768       lambda_17[0][0]
__________________________________________________________________________________________________
batch_normalization_36 (BatchNo (None, 64, 64, 128)  512         conv2d_36[0][0]
__________________________________________________________________________________________________
batch_normalization_18 (BatchNo (None, 64, 64, 128)  512         conv2d_18[0][0]
__________________________________________________________________________________________________
lambda_36 (Lambda)              (None, 64, 64, 128)  0           batch_normalization_36[0][0]
__________________________________________________________________________________________________
lambda_18 (Lambda)              (None, 64, 64, 128)  0           batch_normalization_18[0][0]
__________________________________________________________________________________________________
tf_op_layer_concat_2 (TensorFlo [(None, 64, 64, 256) 0           lambda_36[0][0]
                                                                 lambda_18[0][0]
__________________________________________________________________________________________________
conv2d_37 (Conv2D)              (None, 64, 64, 256)  65536       tf_op_layer_concat_2[0][0]
__________________________________________________________________________________________________
batch_normalization_37 (BatchNo (None, 64, 64, 256)  1024        conv2d_37[0][0]
__________________________________________________________________________________________________
lambda_37 (Lambda)              (None, 64, 64, 256)  0           batch_normalization_37[0][0]
__________________________________________________________________________________________________
zero_padding2d_3 (ZeroPadding2D (None, 65, 65, 256)  0           lambda_37[0][0]
__________________________________________________________________________________________________
conv2d_38 (Conv2D)              (None, 32, 32, 512)  1179648     zero_padding2d_3[0][0]
__________________________________________________________________________________________________
batch_normalization_38 (BatchNo (None, 32, 32, 512)  2048        conv2d_38[0][0]
__________________________________________________________________________________________________
lambda_38 (Lambda)              (None, 32, 32, 512)  0           batch_normalization_38[0][0]
__________________________________________________________________________________________________
conv2d_40 (Conv2D)              (None, 32, 32, 256)  131072      lambda_38[0][0]
__________________________________________________________________________________________________
batch_normalization_40 (BatchNo (None, 32, 32, 256)  1024        conv2d_40[0][0]
__________________________________________________________________________________________________
lambda_40 (Lambda)              (None, 32, 32, 256)  0           batch_normalization_40[0][0]
__________________________________________________________________________________________________
conv2d_41 (Conv2D)              (None, 32, 32, 256)  65536       lambda_40[0][0]
__________________________________________________________________________________________________
batch_normalization_41 (BatchNo (None, 32, 32, 256)  1024        conv2d_41[0][0]
__________________________________________________________________________________________________
lambda_41 (Lambda)              (None, 32, 32, 256)  0           batch_normalization_41[0][0]
__________________________________________________________________________________________________
conv2d_42 (Conv2D)              (None, 32, 32, 256)  589824      lambda_41[0][0]
__________________________________________________________________________________________________
batch_normalization_42 (BatchNo (None, 32, 32, 256)  1024        conv2d_42[0][0]
__________________________________________________________________________________________________
lambda_42 (Lambda)              (None, 32, 32, 256)  0           batch_normalization_42[0][0]
__________________________________________________________________________________________________
tf_op_layer_add_11 (TensorFlowO [(None, 32, 32, 256) 0           lambda_40[0][0]
                                                                 lambda_42[0][0]
__________________________________________________________________________________________________
conv2d_43 (Conv2D)              (None, 32, 32, 256)  65536       tf_op_layer_add_11[0][0]
__________________________________________________________________________________________________
batch_normalization_43 (BatchNo (None, 32, 32, 256)  1024        conv2d_43[0][0]
__________________________________________________________________________________________________
lambda_43 (Lambda)              (None, 32, 32, 256)  0           batch_normalization_43[0][0]
__________________________________________________________________________________________________
conv2d_44 (Conv2D)              (None, 32, 32, 256)  589824      lambda_43[0][0]
__________________________________________________________________________________________________
batch_normalization_44 (BatchNo (None, 32, 32, 256)  1024        conv2d_44[0][0]
__________________________________________________________________________________________________
lambda_44 (Lambda)              (None, 32, 32, 256)  0           batch_normalization_44[0][0]
__________________________________________________________________________________________________
tf_op_layer_add_12 (TensorFlowO [(None, 32, 32, 256) 0           tf_op_layer_add_11[0][0]
                                                                 lambda_44[0][0]
__________________________________________________________________________________________________
conv2d_45 (Conv2D)              (None, 32, 32, 256)  65536       tf_op_layer_add_12[0][0]
__________________________________________________________________________________________________
batch_normalization_45 (BatchNo (None, 32, 32, 256)  1024        conv2d_45[0][0]
__________________________________________________________________________________________________
lambda_45 (Lambda)              (None, 32, 32, 256)  0           batch_normalization_45[0][0]
__________________________________________________________________________________________________
conv2d_46 (Conv2D)              (None, 32, 32, 256)  589824      lambda_45[0][0]
__________________________________________________________________________________________________
batch_normalization_46 (BatchNo (None, 32, 32, 256)  1024        conv2d_46[0][0]
__________________________________________________________________________________________________
lambda_46 (Lambda)              (None, 32, 32, 256)  0           batch_normalization_46[0][0]
__________________________________________________________________________________________________
tf_op_layer_add_13 (TensorFlowO [(None, 32, 32, 256) 0           tf_op_layer_add_12[0][0]
                                                                 lambda_46[0][0]
__________________________________________________________________________________________________
conv2d_47 (Conv2D)              (None, 32, 32, 256)  65536       tf_op_layer_add_13[0][0]
__________________________________________________________________________________________________
batch_normalization_47 (BatchNo (None, 32, 32, 256)  1024        conv2d_47[0][0]
__________________________________________________________________________________________________
lambda_47 (Lambda)              (None, 32, 32, 256)  0           batch_normalization_47[0][0]
__________________________________________________________________________________________________
conv2d_48 (Conv2D)              (None, 32, 32, 256)  589824      lambda_47[0][0]
__________________________________________________________________________________________________
batch_normalization_48 (BatchNo (None, 32, 32, 256)  1024        conv2d_48[0][0]
__________________________________________________________________________________________________
lambda_48 (Lambda)              (None, 32, 32, 256)  0           batch_normalization_48[0][0]
__________________________________________________________________________________________________
tf_op_layer_add_14 (TensorFlowO [(None, 32, 32, 256) 0           tf_op_layer_add_13[0][0]
                                                                 lambda_48[0][0]
__________________________________________________________________________________________________
conv2d_49 (Conv2D)              (None, 32, 32, 256)  65536       tf_op_layer_add_14[0][0]
__________________________________________________________________________________________________
batch_normalization_49 (BatchNo (None, 32, 32, 256)  1024        conv2d_49[0][0]
__________________________________________________________________________________________________
lambda_49 (Lambda)              (None, 32, 32, 256)  0           batch_normalization_49[0][0]
__________________________________________________________________________________________________
conv2d_50 (Conv2D)              (None, 32, 32, 256)  589824      lambda_49[0][0]
__________________________________________________________________________________________________
batch_normalization_50 (BatchNo (None, 32, 32, 256)  1024        conv2d_50[0][0]
__________________________________________________________________________________________________
lambda_50 (Lambda)              (None, 32, 32, 256)  0           batch_normalization_50[0][0]
__________________________________________________________________________________________________
tf_op_layer_add_15 (TensorFlowO [(None, 32, 32, 256) 0           tf_op_layer_add_14[0][0]
                                                                 lambda_50[0][0]
__________________________________________________________________________________________________
conv2d_51 (Conv2D)              (None, 32, 32, 256)  65536       tf_op_layer_add_15[0][0]
__________________________________________________________________________________________________
batch_normalization_51 (BatchNo (None, 32, 32, 256)  1024        conv2d_51[0][0]
__________________________________________________________________________________________________
lambda_51 (Lambda)              (None, 32, 32, 256)  0           batch_normalization_51[0][0]
__________________________________________________________________________________________________
conv2d_52 (Conv2D)              (None, 32, 32, 256)  589824      lambda_51[0][0]
__________________________________________________________________________________________________
batch_normalization_52 (BatchNo (None, 32, 32, 256)  1024        conv2d_52[0][0]
__________________________________________________________________________________________________
lambda_52 (Lambda)              (None, 32, 32, 256)  0           batch_normalization_52[0][0]
__________________________________________________________________________________________________
tf_op_layer_add_16 (TensorFlowO [(None, 32, 32, 256) 0           tf_op_layer_add_15[0][0]
                                                                 lambda_52[0][0]
__________________________________________________________________________________________________
conv2d_53 (Conv2D)              (None, 32, 32, 256)  65536       tf_op_layer_add_16[0][0]
__________________________________________________________________________________________________
batch_normalization_53 (BatchNo (None, 32, 32, 256)  1024        conv2d_53[0][0]
__________________________________________________________________________________________________
lambda_53 (Lambda)              (None, 32, 32, 256)  0           batch_normalization_53[0][0]
__________________________________________________________________________________________________
conv2d_54 (Conv2D)              (None, 32, 32, 256)  589824      lambda_53[0][0]
__________________________________________________________________________________________________
batch_normalization_54 (BatchNo (None, 32, 32, 256)  1024        conv2d_54[0][0]
__________________________________________________________________________________________________
lambda_54 (Lambda)              (None, 32, 32, 256)  0           batch_normalization_54[0][0]
__________________________________________________________________________________________________
tf_op_layer_add_17 (TensorFlowO [(None, 32, 32, 256) 0           tf_op_layer_add_16[0][0]
                                                                 lambda_54[0][0]
__________________________________________________________________________________________________
conv2d_55 (Conv2D)              (None, 32, 32, 256)  65536       tf_op_layer_add_17[0][0]
__________________________________________________________________________________________________
batch_normalization_55 (BatchNo (None, 32, 32, 256)  1024        conv2d_55[0][0]
__________________________________________________________________________________________________
lambda_55 (Lambda)              (None, 32, 32, 256)  0           batch_normalization_55[0][0]
__________________________________________________________________________________________________
conv2d_56 (Conv2D)              (None, 32, 32, 256)  589824      lambda_55[0][0]
__________________________________________________________________________________________________
batch_normalization_56 (BatchNo (None, 32, 32, 256)  1024        conv2d_56[0][0]
__________________________________________________________________________________________________
lambda_56 (Lambda)              (None, 32, 32, 256)  0           batch_normalization_56[0][0]
__________________________________________________________________________________________________
tf_op_layer_add_18 (TensorFlowO [(None, 32, 32, 256) 0           tf_op_layer_add_17[0][0]
                                                                 lambda_56[0][0]
__________________________________________________________________________________________________
conv2d_57 (Conv2D)              (None, 32, 32, 256)  65536       tf_op_layer_add_18[0][0]
__________________________________________________________________________________________________
conv2d_39 (Conv2D)              (None, 32, 32, 256)  131072      lambda_38[0][0]
__________________________________________________________________________________________________
batch_normalization_57 (BatchNo (None, 32, 32, 256)  1024        conv2d_57[0][0]
__________________________________________________________________________________________________
batch_normalization_39 (BatchNo (None, 32, 32, 256)  1024        conv2d_39[0][0]
__________________________________________________________________________________________________
lambda_57 (Lambda)              (None, 32, 32, 256)  0           batch_normalization_57[0][0]
__________________________________________________________________________________________________
lambda_39 (Lambda)              (None, 32, 32, 256)  0           batch_normalization_39[0][0]
__________________________________________________________________________________________________
tf_op_layer_concat_3 (TensorFlo [(None, 32, 32, 512) 0           lambda_57[0][0]
                                                                 lambda_39[0][0]
__________________________________________________________________________________________________
conv2d_58 (Conv2D)              (None, 32, 32, 512)  262144      tf_op_layer_concat_3[0][0]
__________________________________________________________________________________________________
batch_normalization_58 (BatchNo (None, 32, 32, 512)  2048        conv2d_58[0][0]
__________________________________________________________________________________________________
lambda_58 (Lambda)              (None, 32, 32, 512)  0           batch_normalization_58[0][0]
__________________________________________________________________________________________________
zero_padding2d_4 (ZeroPadding2D (None, 33, 33, 512)  0           lambda_58[0][0]
__________________________________________________________________________________________________
conv2d_59 (Conv2D)              (None, 16, 16, 1024) 4718592     zero_padding2d_4[0][0]
__________________________________________________________________________________________________
batch_normalization_59 (BatchNo (None, 16, 16, 1024) 4096        conv2d_59[0][0]
__________________________________________________________________________________________________
lambda_59 (Lambda)              (None, 16, 16, 1024) 0           batch_normalization_59[0][0]
__________________________________________________________________________________________________
conv2d_61 (Conv2D)              (None, 16, 16, 512)  524288      lambda_59[0][0]
__________________________________________________________________________________________________
batch_normalization_61 (BatchNo (None, 16, 16, 512)  2048        conv2d_61[0][0]
__________________________________________________________________________________________________
lambda_61 (Lambda)              (None, 16, 16, 512)  0           batch_normalization_61[0][0]
__________________________________________________________________________________________________
conv2d_62 (Conv2D)              (None, 16, 16, 512)  262144      lambda_61[0][0]
__________________________________________________________________________________________________
batch_normalization_62 (BatchNo (None, 16, 16, 512)  2048        conv2d_62[0][0]
__________________________________________________________________________________________________
lambda_62 (Lambda)              (None, 16, 16, 512)  0           batch_normalization_62[0][0]
__________________________________________________________________________________________________
conv2d_63 (Conv2D)              (None, 16, 16, 512)  2359296     lambda_62[0][0]
__________________________________________________________________________________________________
batch_normalization_63 (BatchNo (None, 16, 16, 512)  2048        conv2d_63[0][0]
__________________________________________________________________________________________________
lambda_63 (Lambda)              (None, 16, 16, 512)  0           batch_normalization_63[0][0]
__________________________________________________________________________________________________
tf_op_layer_add_19 (TensorFlowO [(None, 16, 16, 512) 0           lambda_61[0][0]
                                                                 lambda_63[0][0]
__________________________________________________________________________________________________
conv2d_64 (Conv2D)              (None, 16, 16, 512)  262144      tf_op_layer_add_19[0][0]
__________________________________________________________________________________________________
batch_normalization_64 (BatchNo (None, 16, 16, 512)  2048        conv2d_64[0][0]
__________________________________________________________________________________________________
lambda_64 (Lambda)              (None, 16, 16, 512)  0           batch_normalization_64[0][0]
__________________________________________________________________________________________________
conv2d_65 (Conv2D)              (None, 16, 16, 512)  2359296     lambda_64[0][0]
__________________________________________________________________________________________________
batch_normalization_65 (BatchNo (None, 16, 16, 512)  2048        conv2d_65[0][0]
__________________________________________________________________________________________________
lambda_65 (Lambda)              (None, 16, 16, 512)  0           batch_normalization_65[0][0]
__________________________________________________________________________________________________
tf_op_layer_add_20 (TensorFlowO [(None, 16, 16, 512) 0           tf_op_layer_add_19[0][0]
                                                                 lambda_65[0][0]
__________________________________________________________________________________________________
conv2d_66 (Conv2D)              (None, 16, 16, 512)  262144      tf_op_layer_add_20[0][0]
__________________________________________________________________________________________________
batch_normalization_66 (BatchNo (None, 16, 16, 512)  2048        conv2d_66[0][0]
__________________________________________________________________________________________________
lambda_66 (Lambda)              (None, 16, 16, 512)  0           batch_normalization_66[0][0]
__________________________________________________________________________________________________
conv2d_67 (Conv2D)              (None, 16, 16, 512)  2359296     lambda_66[0][0]
__________________________________________________________________________________________________
batch_normalization_67 (BatchNo (None, 16, 16, 512)  2048        conv2d_67[0][0]
__________________________________________________________________________________________________
lambda_67 (Lambda)              (None, 16, 16, 512)  0           batch_normalization_67[0][0]
__________________________________________________________________________________________________
tf_op_layer_add_21 (TensorFlowO [(None, 16, 16, 512) 0           tf_op_layer_add_20[0][0]
                                                                 lambda_67[0][0]
__________________________________________________________________________________________________
conv2d_68 (Conv2D)              (None, 16, 16, 512)  262144      tf_op_layer_add_21[0][0]
__________________________________________________________________________________________________
batch_normalization_68 (BatchNo (None, 16, 16, 512)  2048        conv2d_68[0][0]
__________________________________________________________________________________________________
lambda_68 (Lambda)              (None, 16, 16, 512)  0           batch_normalization_68[0][0]
__________________________________________________________________________________________________
conv2d_69 (Conv2D)              (None, 16, 16, 512)  2359296     lambda_68[0][0]
__________________________________________________________________________________________________
batch_normalization_69 (BatchNo (None, 16, 16, 512)  2048        conv2d_69[0][0]
__________________________________________________________________________________________________
lambda_69 (Lambda)              (None, 16, 16, 512)  0           batch_normalization_69[0][0]
__________________________________________________________________________________________________
tf_op_layer_add_22 (TensorFlowO [(None, 16, 16, 512) 0           tf_op_layer_add_21[0][0]
                                                                 lambda_69[0][0]
__________________________________________________________________________________________________
conv2d_70 (Conv2D)              (None, 16, 16, 512)  262144      tf_op_layer_add_22[0][0]
__________________________________________________________________________________________________
conv2d_60 (Conv2D)              (None, 16, 16, 512)  524288      lambda_59[0][0]
__________________________________________________________________________________________________
batch_normalization_70 (BatchNo (None, 16, 16, 512)  2048        conv2d_70[0][0]
__________________________________________________________________________________________________
batch_normalization_60 (BatchNo (None, 16, 16, 512)  2048        conv2d_60[0][0]
__________________________________________________________________________________________________
lambda_70 (Lambda)              (None, 16, 16, 512)  0           batch_normalization_70[0][0]
__________________________________________________________________________________________________
lambda_60 (Lambda)              (None, 16, 16, 512)  0           batch_normalization_60[0][0]
__________________________________________________________________________________________________
tf_op_layer_concat_4 (TensorFlo [(None, 16, 16, 1024 0           lambda_70[0][0]
                                                                 lambda_60[0][0]
__________________________________________________________________________________________________
conv2d_71 (Conv2D)              (None, 16, 16, 1024) 1048576     tf_op_layer_concat_4[0][0]
__________________________________________________________________________________________________
batch_normalization_71 (BatchNo (None, 16, 16, 1024) 4096        conv2d_71[0][0]
__________________________________________________________________________________________________
lambda_71 (Lambda)              (None, 16, 16, 1024) 0           batch_normalization_71[0][0]
__________________________________________________________________________________________________
conv2d_72 (Conv2D)              (None, 16, 16, 512)  524288      lambda_71[0][0]
__________________________________________________________________________________________________
batch_normalization_72 (BatchNo (None, 16, 16, 512)  2048        conv2d_72[0][0]
__________________________________________________________________________________________________
tf_op_layer_LeakyRelu (TensorFl [(None, 16, 16, 512) 0           batch_normalization_72[0][0]
__________________________________________________________________________________________________
conv2d_73 (Conv2D)              (None, 16, 16, 1024) 4718592     tf_op_layer_LeakyRelu[0][0]
__________________________________________________________________________________________________
batch_normalization_73 (BatchNo (None, 16, 16, 1024) 4096        conv2d_73[0][0]
__________________________________________________________________________________________________
tf_op_layer_LeakyRelu_1 (Tensor [(None, 16, 16, 1024 0           batch_normalization_73[0][0]
__________________________________________________________________________________________________
conv2d_74 (Conv2D)              (None, 16, 16, 512)  524288      tf_op_layer_LeakyRelu_1[0][0]
__________________________________________________________________________________________________
batch_normalization_74 (BatchNo (None, 16, 16, 512)  2048        conv2d_74[0][0]
__________________________________________________________________________________________________
tf_op_layer_LeakyRelu_2 (Tensor [(None, 16, 16, 512) 0           batch_normalization_74[0][0]
__________________________________________________________________________________________________
tf_op_layer_MaxPool (TensorFlow [(None, 16, 16, 512) 0           tf_op_layer_LeakyRelu_2[0][0]
__________________________________________________________________________________________________
tf_op_layer_MaxPool_1 (TensorFl [(None, 16, 16, 512) 0           tf_op_layer_LeakyRelu_2[0][0]
__________________________________________________________________________________________________
tf_op_layer_MaxPool_2 (TensorFl [(None, 16, 16, 512) 0           tf_op_layer_LeakyRelu_2[0][0]
__________________________________________________________________________________________________
tf_op_layer_concat_5 (TensorFlo [(None, 16, 16, 2048 0           tf_op_layer_MaxPool[0][0]
                                                                 tf_op_layer_MaxPool_1[0][0]
                                                                 tf_op_layer_MaxPool_2[0][0]
                                                                 tf_op_layer_LeakyRelu_2[0][0]
__________________________________________________________________________________________________
conv2d_75 (Conv2D)              (None, 16, 16, 512)  1048576     tf_op_layer_concat_5[0][0]
__________________________________________________________________________________________________
batch_normalization_75 (BatchNo (None, 16, 16, 512)  2048        conv2d_75[0][0]
__________________________________________________________________________________________________
tf_op_layer_LeakyRelu_3 (Tensor [(None, 16, 16, 512) 0           batch_normalization_75[0][0]
__________________________________________________________________________________________________
conv2d_76 (Conv2D)              (None, 16, 16, 1024) 4718592     tf_op_layer_LeakyRelu_3[0][0]
__________________________________________________________________________________________________
batch_normalization_76 (BatchNo (None, 16, 16, 1024) 4096        conv2d_76[0][0]
__________________________________________________________________________________________________
tf_op_layer_LeakyRelu_4 (Tensor [(None, 16, 16, 1024 0           batch_normalization_76[0][0]
__________________________________________________________________________________________________
conv2d_77 (Conv2D)              (None, 16, 16, 512)  524288      tf_op_layer_LeakyRelu_4[0][0]
__________________________________________________________________________________________________
batch_normalization_77 (BatchNo (None, 16, 16, 512)  2048        conv2d_77[0][0]
__________________________________________________________________________________________________
tf_op_layer_LeakyRelu_5 (Tensor [(None, 16, 16, 512) 0           batch_normalization_77[0][0]
__________________________________________________________________________________________________
conv2d_78 (Conv2D)              (None, 16, 16, 256)  131072      tf_op_layer_LeakyRelu_5[0][0]
__________________________________________________________________________________________________
conv2d_79 (Conv2D)              (None, 32, 32, 256)  131072      lambda_58[0][0]
__________________________________________________________________________________________________
batch_normalization_78 (BatchNo (None, 16, 16, 256)  1024        conv2d_78[0][0]
__________________________________________________________________________________________________
batch_normalization_79 (BatchNo (None, 32, 32, 256)  1024        conv2d_79[0][0]
__________________________________________________________________________________________________
tf_op_layer_LeakyRelu_6 (Tensor [(None, 16, 16, 256) 0           batch_normalization_78[0][0]
__________________________________________________________________________________________________
tf_op_layer_LeakyRelu_7 (Tensor [(None, 32, 32, 256) 0           batch_normalization_79[0][0]
__________________________________________________________________________________________________
tf_op_layer_resize/ResizeNeares [(None, 32, 32, 256) 0           tf_op_layer_LeakyRelu_6[0][0]
__________________________________________________________________________________________________
tf_op_layer_concat_6 (TensorFlo [(None, 32, 32, 512) 0           tf_op_layer_LeakyRelu_7[0][0]
                                                                 tf_op_layer_resize/ResizeNearestN
__________________________________________________________________________________________________
conv2d_80 (Conv2D)              (None, 32, 32, 256)  131072      tf_op_layer_concat_6[0][0]
__________________________________________________________________________________________________
batch_normalization_80 (BatchNo (None, 32, 32, 256)  1024        conv2d_80[0][0]
__________________________________________________________________________________________________
tf_op_layer_LeakyRelu_8 (Tensor [(None, 32, 32, 256) 0           batch_normalization_80[0][0]
__________________________________________________________________________________________________
conv2d_81 (Conv2D)              (None, 32, 32, 512)  1179648     tf_op_layer_LeakyRelu_8[0][0]
__________________________________________________________________________________________________
batch_normalization_81 (BatchNo (None, 32, 32, 512)  2048        conv2d_81[0][0]
__________________________________________________________________________________________________
tf_op_layer_LeakyRelu_9 (Tensor [(None, 32, 32, 512) 0           batch_normalization_81[0][0]
__________________________________________________________________________________________________
conv2d_82 (Conv2D)              (None, 32, 32, 256)  131072      tf_op_layer_LeakyRelu_9[0][0]
__________________________________________________________________________________________________
batch_normalization_82 (BatchNo (None, 32, 32, 256)  1024        conv2d_82[0][0]
__________________________________________________________________________________________________
tf_op_layer_LeakyRelu_10 (Tenso [(None, 32, 32, 256) 0           batch_normalization_82[0][0]
__________________________________________________________________________________________________
conv2d_83 (Conv2D)              (None, 32, 32, 512)  1179648     tf_op_layer_LeakyRelu_10[0][0]
__________________________________________________________________________________________________
batch_normalization_83 (BatchNo (None, 32, 32, 512)  2048        conv2d_83[0][0]
__________________________________________________________________________________________________
tf_op_layer_LeakyRelu_11 (Tenso [(None, 32, 32, 512) 0           batch_normalization_83[0][0]
__________________________________________________________________________________________________
conv2d_84 (Conv2D)              (None, 32, 32, 256)  131072      tf_op_layer_LeakyRelu_11[0][0]
__________________________________________________________________________________________________
batch_normalization_84 (BatchNo (None, 32, 32, 256)  1024        conv2d_84[0][0]
__________________________________________________________________________________________________
tf_op_layer_LeakyRelu_12 (Tenso [(None, 32, 32, 256) 0           batch_normalization_84[0][0]
__________________________________________________________________________________________________
conv2d_85 (Conv2D)              (None, 32, 32, 128)  32768       tf_op_layer_LeakyRelu_12[0][0]
__________________________________________________________________________________________________
conv2d_86 (Conv2D)              (None, 64, 64, 128)  32768       lambda_37[0][0]
__________________________________________________________________________________________________
batch_normalization_85 (BatchNo (None, 32, 32, 128)  512         conv2d_85[0][0]
__________________________________________________________________________________________________
batch_normalization_86 (BatchNo (None, 64, 64, 128)  512         conv2d_86[0][0]
__________________________________________________________________________________________________
tf_op_layer_LeakyRelu_13 (Tenso [(None, 32, 32, 128) 0           batch_normalization_85[0][0]
__________________________________________________________________________________________________
tf_op_layer_LeakyRelu_14 (Tenso [(None, 64, 64, 128) 0           batch_normalization_86[0][0]
__________________________________________________________________________________________________
tf_op_layer_resize_1/ResizeNear [(None, 64, 64, 128) 0           tf_op_layer_LeakyRelu_13[0][0]
__________________________________________________________________________________________________
tf_op_layer_concat_7 (TensorFlo [(None, 64, 64, 256) 0           tf_op_layer_LeakyRelu_14[0][0]
                                                                 tf_op_layer_resize_1/ResizeNeares
__________________________________________________________________________________________________
conv2d_87 (Conv2D)              (None, 64, 64, 128)  32768       tf_op_layer_concat_7[0][0]
__________________________________________________________________________________________________
batch_normalization_87 (BatchNo (None, 64, 64, 128)  512         conv2d_87[0][0]
__________________________________________________________________________________________________
tf_op_layer_LeakyRelu_15 (Tenso [(None, 64, 64, 128) 0           batch_normalization_87[0][0]
__________________________________________________________________________________________________
conv2d_88 (Conv2D)              (None, 64, 64, 256)  294912      tf_op_layer_LeakyRelu_15[0][0]
__________________________________________________________________________________________________
batch_normalization_88 (BatchNo (None, 64, 64, 256)  1024        conv2d_88[0][0]
__________________________________________________________________________________________________
tf_op_layer_LeakyRelu_16 (Tenso [(None, 64, 64, 256) 0           batch_normalization_88[0][0]
__________________________________________________________________________________________________
conv2d_89 (Conv2D)              (None, 64, 64, 128)  32768       tf_op_layer_LeakyRelu_16[0][0]
__________________________________________________________________________________________________
batch_normalization_89 (BatchNo (None, 64, 64, 128)  512         conv2d_89[0][0]
__________________________________________________________________________________________________
tf_op_layer_LeakyRelu_17 (Tenso [(None, 64, 64, 128) 0           batch_normalization_89[0][0]
__________________________________________________________________________________________________
conv2d_90 (Conv2D)              (None, 64, 64, 256)  294912      tf_op_layer_LeakyRelu_17[0][0]
__________________________________________________________________________________________________
batch_normalization_90 (BatchNo (None, 64, 64, 256)  1024        conv2d_90[0][0]
__________________________________________________________________________________________________
tf_op_layer_LeakyRelu_18 (Tenso [(None, 64, 64, 256) 0           batch_normalization_90[0][0]
__________________________________________________________________________________________________
conv2d_91 (Conv2D)              (None, 64, 64, 128)  32768       tf_op_layer_LeakyRelu_18[0][0]
__________________________________________________________________________________________________
batch_normalization_91 (BatchNo (None, 64, 64, 128)  512         conv2d_91[0][0]
__________________________________________________________________________________________________
tf_op_layer_LeakyRelu_19 (Tenso [(None, 64, 64, 128) 0           batch_normalization_91[0][0]
__________________________________________________________________________________________________
zero_padding2d_5 (ZeroPadding2D (None, 65, 65, 128)  0           tf_op_layer_LeakyRelu_19[0][0]
__________________________________________________________________________________________________
conv2d_94 (Conv2D)              (None, 32, 32, 256)  294912      zero_padding2d_5[0][0]
__________________________________________________________________________________________________
batch_normalization_93 (BatchNo (None, 32, 32, 256)  1024        conv2d_94[0][0]
__________________________________________________________________________________________________
tf_op_layer_LeakyRelu_21 (Tenso [(None, 32, 32, 256) 0           batch_normalization_93[0][0]
__________________________________________________________________________________________________
tf_op_layer_concat_8 (TensorFlo [(None, 32, 32, 512) 0           tf_op_layer_LeakyRelu_21[0][0]
                                                                 tf_op_layer_LeakyRelu_12[0][0]
__________________________________________________________________________________________________
conv2d_95 (Conv2D)              (None, 32, 32, 256)  131072      tf_op_layer_concat_8[0][0]
__________________________________________________________________________________________________
batch_normalization_94 (BatchNo (None, 32, 32, 256)  1024        conv2d_95[0][0]
__________________________________________________________________________________________________
tf_op_layer_LeakyRelu_22 (Tenso [(None, 32, 32, 256) 0           batch_normalization_94[0][0]
__________________________________________________________________________________________________
conv2d_96 (Conv2D)              (None, 32, 32, 512)  1179648     tf_op_layer_LeakyRelu_22[0][0]
__________________________________________________________________________________________________
batch_normalization_95 (BatchNo (None, 32, 32, 512)  2048        conv2d_96[0][0]
__________________________________________________________________________________________________
tf_op_layer_LeakyRelu_23 (Tenso [(None, 32, 32, 512) 0           batch_normalization_95[0][0]
__________________________________________________________________________________________________
conv2d_97 (Conv2D)              (None, 32, 32, 256)  131072      tf_op_layer_LeakyRelu_23[0][0]
__________________________________________________________________________________________________
batch_normalization_96 (BatchNo (None, 32, 32, 256)  1024        conv2d_97[0][0]
__________________________________________________________________________________________________
tf_op_layer_LeakyRelu_24 (Tenso [(None, 32, 32, 256) 0           batch_normalization_96[0][0]
__________________________________________________________________________________________________
conv2d_98 (Conv2D)              (None, 32, 32, 512)  1179648     tf_op_layer_LeakyRelu_24[0][0]
__________________________________________________________________________________________________
batch_normalization_97 (BatchNo (None, 32, 32, 512)  2048        conv2d_98[0][0]
__________________________________________________________________________________________________
tf_op_layer_LeakyRelu_25 (Tenso [(None, 32, 32, 512) 0           batch_normalization_97[0][0]
__________________________________________________________________________________________________
conv2d_99 (Conv2D)              (None, 32, 32, 256)  131072      tf_op_layer_LeakyRelu_25[0][0]
__________________________________________________________________________________________________
batch_normalization_98 (BatchNo (None, 32, 32, 256)  1024        conv2d_99[0][0]
__________________________________________________________________________________________________
tf_op_layer_LeakyRelu_26 (Tenso [(None, 32, 32, 256) 0           batch_normalization_98[0][0]
__________________________________________________________________________________________________
zero_padding2d_6 (ZeroPadding2D (None, 33, 33, 256)  0           tf_op_layer_LeakyRelu_26[0][0]
__________________________________________________________________________________________________
conv2d_102 (Conv2D)             (None, 16, 16, 512)  1179648     zero_padding2d_6[0][0]
__________________________________________________________________________________________________
batch_normalization_100 (BatchN (None, 16, 16, 512)  2048        conv2d_102[0][0]
__________________________________________________________________________________________________
tf_op_layer_LeakyRelu_28 (Tenso [(None, 16, 16, 512) 0           batch_normalization_100[0][0]
__________________________________________________________________________________________________
tf_op_layer_concat_9 (TensorFlo [(None, 16, 16, 1024 0           tf_op_layer_LeakyRelu_28[0][0]
                                                                 tf_op_layer_LeakyRelu_5[0][0]
__________________________________________________________________________________________________
conv2d_103 (Conv2D)             (None, 16, 16, 512)  524288      tf_op_layer_concat_9[0][0]
__________________________________________________________________________________________________
batch_normalization_101 (BatchN (None, 16, 16, 512)  2048        conv2d_103[0][0]
__________________________________________________________________________________________________
tf_op_layer_LeakyRelu_29 (Tenso [(None, 16, 16, 512) 0           batch_normalization_101[0][0]
__________________________________________________________________________________________________
conv2d_104 (Conv2D)             (None, 16, 16, 1024) 4718592     tf_op_layer_LeakyRelu_29[0][0]
__________________________________________________________________________________________________
batch_normalization_102 (BatchN (None, 16, 16, 1024) 4096        conv2d_104[0][0]
__________________________________________________________________________________________________
tf_op_layer_LeakyRelu_30 (Tenso [(None, 16, 16, 1024 0           batch_normalization_102[0][0]
__________________________________________________________________________________________________
conv2d_105 (Conv2D)             (None, 16, 16, 512)  524288      tf_op_layer_LeakyRelu_30[0][0]
__________________________________________________________________________________________________
batch_normalization_103 (BatchN (None, 16, 16, 512)  2048        conv2d_105[0][0]
__________________________________________________________________________________________________
tf_op_layer_LeakyRelu_31 (Tenso [(None, 16, 16, 512) 0           batch_normalization_103[0][0]
__________________________________________________________________________________________________
conv2d_106 (Conv2D)             (None, 16, 16, 1024) 4718592     tf_op_layer_LeakyRelu_31[0][0]
__________________________________________________________________________________________________
batch_normalization_104 (BatchN (None, 16, 16, 1024) 4096        conv2d_106[0][0]
__________________________________________________________________________________________________
tf_op_layer_LeakyRelu_32 (Tenso [(None, 16, 16, 1024 0           batch_normalization_104[0][0]
__________________________________________________________________________________________________
conv2d_107 (Conv2D)             (None, 16, 16, 512)  524288      tf_op_layer_LeakyRelu_32[0][0]
__________________________________________________________________________________________________
batch_normalization_105 (BatchN (None, 16, 16, 512)  2048        conv2d_107[0][0]
__________________________________________________________________________________________________
tf_op_layer_LeakyRelu_33 (Tenso [(None, 16, 16, 512) 0           batch_normalization_105[0][0]
__________________________________________________________________________________________________
conv2d_92 (Conv2D)              (None, 64, 64, 256)  294912      tf_op_layer_LeakyRelu_19[0][0]
__________________________________________________________________________________________________
conv2d_100 (Conv2D)             (None, 32, 32, 512)  1179648     tf_op_layer_LeakyRelu_26[0][0]
__________________________________________________________________________________________________
conv2d_108 (Conv2D)             (None, 16, 16, 1024) 4718592     tf_op_layer_LeakyRelu_33[0][0]
__________________________________________________________________________________________________
batch_normalization_92 (BatchNo (None, 64, 64, 256)  1024        conv2d_92[0][0]
__________________________________________________________________________________________________
batch_normalization_99 (BatchNo (None, 32, 32, 512)  2048        conv2d_100[0][0]
__________________________________________________________________________________________________
batch_normalization_106 (BatchN (None, 16, 16, 1024) 4096        conv2d_108[0][0]
__________________________________________________________________________________________________
tf_op_layer_LeakyRelu_20 (Tenso [(None, 64, 64, 256) 0           batch_normalization_92[0][0]
__________________________________________________________________________________________________
tf_op_layer_LeakyRelu_27 (Tenso [(None, 32, 32, 512) 0           batch_normalization_99[0][0]
__________________________________________________________________________________________________
tf_op_layer_LeakyRelu_34 (Tenso [(None, 16, 16, 1024 0           batch_normalization_106[0][0]
__________________________________________________________________________________________________
conv2d_93 (Conv2D)              (None, 64, 64, 255)  65535       tf_op_layer_LeakyRelu_20[0][0]
__________________________________________________________________________________________________
conv2d_101 (Conv2D)             (None, 32, 32, 255)  130815      tf_op_layer_LeakyRelu_27[0][0]
__________________________________________________________________________________________________
conv2d_109 (Conv2D)             (None, 16, 16, 255)  261375      tf_op_layer_LeakyRelu_34[0][0]
__________________________________________________________________________________________________
tf_op_layer_Shape (TensorFlowOp [(4,)]               0           conv2d_93[0][0]
__________________________________________________________________________________________________
tf_op_layer_Shape_1 (TensorFlow [(4,)]               0           conv2d_101[0][0]
__________________________________________________________________________________________________
…
